…
I0525 10:19:50.388799 32256 net.cpp:322] The NetState phase (0) differed from the phase (1) specified by a rule in layer accuracy
I0525 10:19:50.389032 32256 net.cpp:58] Initializing net from parameters: 
name: "HCCR-CNN9Layer"
state {
  phase: TRAIN
  level: 0
  stage: ""
}
layer {
  name: "HWDB"
  type: "Data"
  top: "data"
  top: "label"
  include {
    phase: TRAIN
  }
  transform_param {
    crop_size: 96
    mean_file: "/your/path/to/HWDB1.0_1.1_mean_104.binaryproto"
  }
  data_param {
    source: "/your/path/to/HWDB1.0_1.1_train_test_lmdb_104"
    batch_size: 64
    backend: LMDB
  }
}
layer {
  name: "conv1"
  type: "Convolution"
  bottom: "data"
  top: "conv1"
  param {
    lr_mult: 1
    decay_mult: 1
  }
  param {
    lr_mult: 2
    decay_mult: 0
  }
  convolution_param {
    num_output: 96
    pad: 1
    kernel_size: 3
    weight_filler {
      type: "msra"
    }
    bias_filler {
      type: "constant"
      value: 0.1
    }
  }
}
layer {
  name: "bn_conv1"
  type: "BatchNorm"
  bottom: "conv1"
  top: "conv1"
}
layer {
  name: "scale_conv1"
  type: "Scale"
  bottom: "conv1"
  top: "conv1"
  param {
    lr_mult: 1
    decay_mult: 1
  }
  param {
    lr_mult: 1
    decay_mult: 0
  }
  scale_param {
    bias_term: true
  }
}
layer {
  name: "prelu1"
  type: "PReLU"
  bottom: "conv1"
  top: "conv1"
}
layer {
  name: "pool1"
  type: "Pooling"
  bottom: "conv1"
  top: "pool1"
  pooling_param {
    pool: MAX
    kernel_size: 3
    stride: 2
  }
}
layer {
  name: "conv2"
  type: "Convolution"
  bottom: "pool1"
  top: "conv2"
  param {
    lr_mult: 1
    decay_mult: 1
  }
  param {
    lr_mult: 2
    decay_mult: 0
  }
  convolution_param {
    num_output: 128
    pad: 1
    kernel_size: 3
    weight_filler {
      type: "msra"
    }
    bias_filler {
      type: "constant"
      value: 0.1
    }
  }
}
layer {
  name: "bn_conv2"
  type: "BatchNorm"
  bottom: "conv2"
  top: "conv2"
}
layer {
  name: "scale_conv2"
  type: "Scale"
  bottom: "conv2"
  top: "conv2"
  param {
    lr_mult: 1
    decay_mult: 1
  }
  param {
    lr_mult: 1
    decay_mult: 0
  }
  scale_param {
    bias_term: true
  }
}
layer {
  name: "prelu2"
  type: "PReLU"
  bottom: "conv2"
  top: "conv2"
}
layer {
  name: "pool2"
  type: "Pooling"
  bottom: "conv2"
  top: "pool2"
  pooling_param {
    pool: MAX
    kernel_size: 3
    stride: 2
  }
}
layer {
  name: "conv3"
  type: "Convolution"
  bottom: "pool2"
  top: "conv3"
  param {
    lr_mult: 1
    decay_mult: 1
  }
  param {
    lr_mult: 2
    decay_mult: 0
  }
  convolution_param {
    num_output: 160
    pad: 1
    kernel_size: 3
    weight_filler {
      type: "msra"
    }
    bias_filler {
      type: "constant"
      value: 0.1
    }
  }
}
layer {
  name: "bn_conv3"
  type: "BatchNorm"
  bottom: "conv3"
  top: "conv3"
}
layer {
  name: "scale_conv3"
  type: "Scale"
  bottom: "conv3"
  top: "conv3"
  param {
    lr_mult: 1
    decay_mult: 1
  }
  param {
    lr_mult: 1
    decay_mult: 0
  }
  scale_param {
    bias_term: true
  }
}
layer {
  name: "prelu3"
  type: "PReLU"
  bottom: "conv3"
  top: "conv3"
}
layer {
  name: "pool3"
  type: "Pooling"
  bottom: "conv3"
  top: "pool3"
  pooling_param {
    pool: MAX
    kernel_size: 3
    stride: 2
  }
}
layer {
  name: "conv4_1"
  type: "Convolution"
  bottom: "pool3"
  top: "conv4_1"
  param {
    lr_mult: 1
    decay_mult: 1
  }
  param {
    lr_mult: 2
    decay_mult: 0
  }
  convolution_param {
    num_output: 256
    pad: 1
    kernel_size: 3
    weight_filler {
      type: "msra"
    }
    bias_filler {
      type: "constant"
      value: 0.1
    }
  }
}
layer {
  name: "bn_conv4_1"
  type: "BatchNorm"
  bottom: "conv4_1"
  top: "conv4_1"
}
layer {
  name: "scale_conv4_1"
  type: "Scale"
  bottom: "conv4_1"
  top: "conv4_1"
  param {
    lr_mult: 1
    decay_mult: 1
  }
  param {
    lr_mult: 1
    decay_mult: 0
  }
  scale_param {
    bias_term: true
  }
}
layer {
  name: "prelu4_1"
  type: "PReLU"
  bottom: "conv4_1"
  top: "conv4_1"
}
layer {
  name: "conv4_2"
  type: "Convolution"
  bottom: "conv4_1"
  top: "conv4_2"
  param {
    lr_mult: 1
    decay_mult: 1
  }
  param {
    lr_mult: 2
    decay_mult: 0
  }
  convolution_param {
    num_output: 256
    pad: 1
    kernel_size: 3
    weight_filler {
      type: "msra"
    }
    bias_filler {
      type: "constant"
      value: 0.1
    }
  }
}
layer {
  name: "bn_conv4_2"
  type: "BatchNorm"
  bottom: "conv4_2"
  top: "conv4_2"
}
layer {
  name: "scale_conv4_2"
  type: "Scale"
  bottom: "conv4_2"
  top: "conv4_2"
  param {
    lr_mult: 1
    decay_mult: 1
  }
  param {
    lr_mult: 1
    decay_mult: 0
  }
  scale_param {
    bias_term: true
  }
}
layer {
  name: "prelu4_2"
  type: "PReLU"
  bottom: "conv4_2"
  top: "conv4_2"
}
layer {
  name: "pool4"
  type: "Pooling"
  bottom: "conv4_2"
  top: "pool4"
  pooling_param {
    pool: MAX
    kernel_size: 3
    stride: 2
  }
}
layer {
  name: "conv5_1"
  type: "Convolution"
  bottom: "pool4"
  top: "conv5_1"
  param {
    lr_mult: 1
    decay_mult: 1
  }
  param {
    lr_mult: 2
    decay_mult: 0
  }
  convolution_param {
    num_output: 384
    pad: 1
    kernel_size: 3
    weight_filler {
      type: "msra"
    }
    bias_filler {
      type: "constant"
      value: 0.1
    }
  }
}
layer {
  name: "bn_conv5_1"
  type: "BatchNorm"
  bottom: "conv5_1"
  top: "conv5_1"
}
layer {
  name: "scale_conv5_1"
  type: "Scale"
  bottom: "conv5_1"
  top: "conv5_1"
  param {
    lr_mult: 1
    decay_mult: 1
  }
  param {
    lr_mult: 1
    decay_mult: 0
  }
  scale_param {
    bias_term: true
  }
}
layer {
  name: "prelu5_1"
  type: "PReLU"
  bottom: "conv5_1"
  top: "conv5_1"
}
layer {
  name: "conv5_2"
  type: "Convolution"
  bottom: "conv5_1"
  top: "conv5_2"
  param {
    lr_mult: 1
    decay_mult: 1
  }
  param {
    lr_mult: 2
    decay_mult: 0
  }
  convolution_param {
    num_output: 384
    pad: 1
    kernel_size: 3
    weight_filler {
      type: "msra"
    }
    bias_filler {
      type: "constant"
      value: 0.1
    }
  }
}
layer {
  name: "bn_conv5_2"
  type: "BatchNorm"
  bottom: "conv5_2"
  top: "conv5_2"
}
layer {
  name: "scale_conv5_2"
  type: "Scale"
  bottom: "conv5_2"
  top: "conv5_2"
  param {
    lr_mult: 1
    decay_mult: 1
  }
  param {
    lr_mult: 1
    decay_mult: 0
  }
  scale_param {
    bias_term: true
  }
}
layer {
  name: "prelu5_2"
  type: "PReLU"
  bottom: "conv5_2"
  top: "conv5_2"
}
layer {
  name: "pool5"
  type: "Pooling"
  bottom: "conv5_2"
  top: "pool5"
  pooling_param {
    pool: MAX
    kernel_size: 3
    stride: 2
  }
}
layer {
  name: "ip1"
  type: "InnerProduct"
  bottom: "pool5"
  top: "ip1"
  param {
    lr_mult: 1
    decay_mult: 1
  }
  param {
    lr_mult: 2
    decay_mult: 0
  }
  inner_product_param {
    num_output: 1024
    weight_filler {
      type: "gaussian"
      std: 0.01
    }
    bias_filler {
      type: "constant"
      value: 0.1
    }
  }
}
layer {
  name: "bn_ip1"
  type: "BatchNorm"
  bottom: "ip1"
  top: "ip1"
}
layer {
  name: "scale_ip1"
  type: "Scale"
  bottom: "ip1"
  top: "ip1"
  param {
    lr_mult: 1
    decay_mult: 1
  }
  param {
    lr_mult: 1
    decay_mult: 0
  }
  scale_param {
    bias_term: true
  }
}
layer {
  name: "prelu_ip1"
  type: "PReLU"
  bottom: "ip1"
  top: "ip1"
}
layer {
  name: "drop_ip1"
  type: "Dropout"
  bottom: "ip1"
  top: "ip1"
  dropout_param {
    dropout_ratio: 0.5
  }
}
layer {
  name: "ip2"
  type: "InnerProduct"
  bottom: "ip1"
  top: "ip2"
  param {
    lr_mult: 1
    decay_mult: 1
  }
  param {
    lr_mult: 2
    decay_mult: 0
  }
  inner_product_param {
    num_output: 3755
    weight_filler {
      type: "gaussian"
      std: 0.01
    }
    bias_filler {
      type: "constant"
      value: 0
    }
  }
}
layer {
  name: "loss"
  type: "SoftmaxWithLoss"
  bottom: "ip2"
  bottom: "label"
  top: "loss"
}
I0525 10:19:50.389251 32256 layer_factory.hpp:77] Creating layer HWDB
I0525 10:19:50.389861 32256 net.cpp:100] Creating Layer HWDB
I0525 10:19:50.389889 32256 net.cpp:408] HWDB -> data
I0525 10:19:50.389925 32256 net.cpp:408] HWDB -> label
I0525 10:19:50.389946 32256 data_transformer.cpp:25] Loading mean file from: /data/tbxu/HWDB1.0_1.1_mean_104.binaryproto
I0525 10:19:50.393851 32264 db_lmdb.cpp:35] Opened lmdb /data/tbxu/HWDB1.0_1.1_train_test_lmdb_104
I0525 10:19:50.464730 32256 data_layer.cpp:41] output data size: 64,1,96,96
I0525 10:19:50.469796 32256 net.cpp:150] Setting up HWDB
I0525 10:19:50.469871 32256 net.cpp:157] Top shape: 64 1 96 96 (589824)
I0525 10:19:50.469877 32256 net.cpp:157] Top shape: 64 (64)
I0525 10:19:50.469880 32256 net.cpp:165] Memory required for data: 2359552
I0525 10:19:50.469904 32256 layer_factory.hpp:77] Creating layer conv1
I0525 10:19:50.469941 32256 net.cpp:100] Creating Layer conv1
I0525 10:19:50.469951 32256 net.cpp:434] conv1 <- data
I0525 10:19:50.469979 32256 net.cpp:408] conv1 -> conv1
I0525 10:19:50.471516 32265 blocking_queue.cpp:50] Waiting for data
I0525 10:19:51.585862 32256 net.cpp:150] Setting up conv1
I0525 10:19:51.585916 32256 net.cpp:157] Top shape: 64 96 96 96 (56623104)
I0525 10:19:51.585922 32256 net.cpp:165] Memory required for data: 228851968
I0525 10:19:51.585953 32256 layer_factory.hpp:77] Creating layer bn_conv1
I0525 10:19:51.585983 32256 net.cpp:100] Creating Layer bn_conv1
I0525 10:19:51.585988 32256 net.cpp:434] bn_conv1 <- conv1
I0525 10:19:51.585996 32256 net.cpp:395] bn_conv1 -> conv1 (in-place)
I0525 10:19:51.586211 32256 net.cpp:150] Setting up bn_conv1
I0525 10:19:51.586230 32256 net.cpp:157] Top shape: 64 96 96 96 (56623104)
I0525 10:19:51.586236 32256 net.cpp:165] Memory required for data: 455344384
I0525 10:19:51.586246 32256 layer_factory.hpp:77] Creating layer scale_conv1
I0525 10:19:51.586256 32256 net.cpp:100] Creating Layer scale_conv1
I0525 10:19:51.586261 32256 net.cpp:434] scale_conv1 <- conv1
I0525 10:19:51.586266 32256 net.cpp:395] scale_conv1 -> conv1 (in-place)
I0525 10:19:51.586325 32256 layer_factory.hpp:77] Creating layer scale_conv1
I0525 10:19:51.586467 32256 net.cpp:150] Setting up scale_conv1
I0525 10:19:51.586486 32256 net.cpp:157] Top shape: 64 96 96 96 (56623104)
I0525 10:19:51.586490 32256 net.cpp:165] Memory required for data: 681836800
I0525 10:19:51.586498 32256 layer_factory.hpp:77] Creating layer prelu1
I0525 10:19:51.586505 32256 net.cpp:100] Creating Layer prelu1
I0525 10:19:51.586510 32256 net.cpp:434] prelu1 <- conv1
I0525 10:19:51.586525 32256 net.cpp:395] prelu1 -> conv1 (in-place)
I0525 10:19:51.588994 32256 net.cpp:150] Setting up prelu1
I0525 10:19:51.589020 32256 net.cpp:157] Top shape: 64 96 96 96 (56623104)
I0525 10:19:51.589025 32256 net.cpp:165] Memory required for data: 908329216
I0525 10:19:51.589032 32256 layer_factory.hpp:77] Creating layer pool1
I0525 10:19:51.589057 32256 net.cpp:100] Creating Layer pool1
I0525 10:19:51.589062 32256 net.cpp:434] pool1 <- conv1
I0525 10:19:51.589068 32256 net.cpp:408] pool1 -> pool1
I0525 10:19:51.589121 32256 net.cpp:150] Setting up pool1
I0525 10:19:51.589130 32256 net.cpp:157] Top shape: 64 96 48 48 (14155776)
I0525 10:19:51.589134 32256 net.cpp:165] Memory required for data: 964952320
I0525 10:19:51.589169 32256 layer_factory.hpp:77] Creating layer conv2
I0525 10:19:51.589184 32256 net.cpp:100] Creating Layer conv2
I0525 10:19:51.589188 32256 net.cpp:434] conv2 <- pool1
I0525 10:19:51.589193 32256 net.cpp:408] conv2 -> conv2
I0525 10:19:51.613026 32256 net.cpp:150] Setting up conv2
I0525 10:19:51.613081 32256 net.cpp:157] Top shape: 64 128 48 48 (18874368)
I0525 10:19:51.613096 32256 net.cpp:165] Memory required for data: 1040449792
I0525 10:19:51.613121 32256 layer_factory.hpp:77] Creating layer bn_conv2
I0525 10:19:51.613137 32256 net.cpp:100] Creating Layer bn_conv2
I0525 10:19:51.613143 32256 net.cpp:434] bn_conv2 <- conv2
I0525 10:19:51.613153 32256 net.cpp:395] bn_conv2 -> conv2 (in-place)
I0525 10:19:51.613364 32256 net.cpp:150] Setting up bn_conv2
I0525 10:19:51.613373 32256 net.cpp:157] Top shape: 64 128 48 48 (18874368)
I0525 10:19:51.613379 32256 net.cpp:165] Memory required for data: 1115947264
I0525 10:19:51.613387 32256 layer_factory.hpp:77] Creating layer scale_conv2
I0525 10:19:51.613400 32256 net.cpp:100] Creating Layer scale_conv2
I0525 10:19:51.613404 32256 net.cpp:434] scale_conv2 <- conv2
I0525 10:19:51.613411 32256 net.cpp:395] scale_conv2 -> conv2 (in-place)
I0525 10:19:51.613456 32256 layer_factory.hpp:77] Creating layer scale_conv2
I0525 10:19:51.613559 32256 net.cpp:150] Setting up scale_conv2
I0525 10:19:51.613567 32256 net.cpp:157] Top shape: 64 128 48 48 (18874368)
I0525 10:19:51.613571 32256 net.cpp:165] Memory required for data: 1191444736
I0525 10:19:51.613579 32256 layer_factory.hpp:77] Creating layer prelu2
I0525 10:19:51.613586 32256 net.cpp:100] Creating Layer prelu2
I0525 10:19:51.613590 32256 net.cpp:434] prelu2 <- conv2
I0525 10:19:51.613597 32256 net.cpp:395] prelu2 -> conv2 (in-place)
I0525 10:19:51.614560 32256 net.cpp:150] Setting up prelu2
I0525 10:19:51.614574 32256 net.cpp:157] Top shape: 64 128 48 48 (18874368)
I0525 10:19:51.614579 32256 net.cpp:165] Memory required for data: 1266942208
I0525 10:19:51.614586 32256 layer_factory.hpp:77] Creating layer pool2
I0525 10:19:51.614598 32256 net.cpp:100] Creating Layer pool2
I0525 10:19:51.614603 32256 net.cpp:434] pool2 <- conv2
I0525 10:19:51.614609 32256 net.cpp:408] pool2 -> pool2
I0525 10:19:51.614648 32256 net.cpp:150] Setting up pool2
I0525 10:19:51.614655 32256 net.cpp:157] Top shape: 64 128 24 24 (4718592)
I0525 10:19:51.614660 32256 net.cpp:165] Memory required for data: 1285816576
I0525 10:19:51.614663 32256 layer_factory.hpp:77] Creating layer conv3
I0525 10:19:51.614676 32256 net.cpp:100] Creating Layer conv3
I0525 10:19:51.614681 32256 net.cpp:434] conv3 <- pool2
I0525 10:19:51.614688 32256 net.cpp:408] conv3 -> conv3
I0525 10:19:51.621973 32256 net.cpp:150] Setting up conv3
I0525 10:19:51.622022 32256 net.cpp:157] Top shape: 64 160 24 24 (5898240)
I0525 10:19:51.622027 32256 net.cpp:165] Memory required for data: 1309409536
I0525 10:19:51.622043 32256 layer_factory.hpp:77] Creating layer bn_conv3
I0525 10:19:51.622058 32256 net.cpp:100] Creating Layer bn_conv3
I0525 10:19:51.622064 32256 net.cpp:434] bn_conv3 <- conv3
I0525 10:19:51.622076 32256 net.cpp:395] bn_conv3 -> conv3 (in-place)
I0525 10:19:51.622262 32256 net.cpp:150] Setting up bn_conv3
I0525 10:19:51.622270 32256 net.cpp:157] Top shape: 64 160 24 24 (5898240)
I0525 10:19:51.622274 32256 net.cpp:165] Memory required for data: 1333002496
I0525 10:19:51.622282 32256 layer_factory.hpp:77] Creating layer scale_conv3
I0525 10:19:51.622295 32256 net.cpp:100] Creating Layer scale_conv3
I0525 10:19:51.622299 32256 net.cpp:434] scale_conv3 <- conv3
I0525 10:19:51.622304 32256 net.cpp:395] scale_conv3 -> conv3 (in-place)
I0525 10:19:51.622345 32256 layer_factory.hpp:77] Creating layer scale_conv3
I0525 10:19:51.622465 32256 net.cpp:150] Setting up scale_conv3
I0525 10:19:51.622475 32256 net.cpp:157] Top shape: 64 160 24 24 (5898240)
I0525 10:19:51.622480 32256 net.cpp:165] Memory required for data: 1356595456
I0525 10:19:51.622486 32256 layer_factory.hpp:77] Creating layer prelu3
I0525 10:19:51.622500 32256 net.cpp:100] Creating Layer prelu3
I0525 10:19:51.622534 32256 net.cpp:434] prelu3 <- conv3
I0525 10:19:51.622540 32256 net.cpp:395] prelu3 -> conv3 (in-place)
I0525 10:19:51.622704 32256 net.cpp:150] Setting up prelu3
I0525 10:19:51.622712 32256 net.cpp:157] Top shape: 64 160 24 24 (5898240)
I0525 10:19:51.622716 32256 net.cpp:165] Memory required for data: 1380188416
I0525 10:19:51.622722 32256 layer_factory.hpp:77] Creating layer pool3
I0525 10:19:51.622730 32256 net.cpp:100] Creating Layer pool3
I0525 10:19:51.622735 32256 net.cpp:434] pool3 <- conv3
I0525 10:19:51.622740 32256 net.cpp:408] pool3 -> pool3
I0525 10:19:51.622779 32256 net.cpp:150] Setting up pool3
I0525 10:19:51.622786 32256 net.cpp:157] Top shape: 64 160 12 12 (1474560)
I0525 10:19:51.622790 32256 net.cpp:165] Memory required for data: 1386086656
I0525 10:19:51.622793 32256 layer_factory.hpp:77] Creating layer conv4_1
I0525 10:19:51.622807 32256 net.cpp:100] Creating Layer conv4_1
I0525 10:19:51.622812 32256 net.cpp:434] conv4_1 <- pool3
I0525 10:19:51.622820 32256 net.cpp:408] conv4_1 -> conv4_1
I0525 10:19:51.635815 32256 net.cpp:150] Setting up conv4_1
I0525 10:19:51.635870 32256 net.cpp:157] Top shape: 64 256 12 12 (2359296)
I0525 10:19:51.635886 32256 net.cpp:165] Memory required for data: 1395523840
I0525 10:19:51.635897 32256 layer_factory.hpp:77] Creating layer bn_conv4_1
I0525 10:19:51.635910 32256 net.cpp:100] Creating Layer bn_conv4_1
I0525 10:19:51.635916 32256 net.cpp:434] bn_conv4_1 <- conv4_1
I0525 10:19:51.635926 32256 net.cpp:395] bn_conv4_1 -> conv4_1 (in-place)
I0525 10:19:51.636116 32256 net.cpp:150] Setting up bn_conv4_1
I0525 10:19:51.636126 32256 net.cpp:157] Top shape: 64 256 12 12 (2359296)
I0525 10:19:51.636131 32256 net.cpp:165] Memory required for data: 1404961024
I0525 10:19:51.636138 32256 layer_factory.hpp:77] Creating layer scale_conv4_1
I0525 10:19:51.636147 32256 net.cpp:100] Creating Layer scale_conv4_1
I0525 10:19:51.636152 32256 net.cpp:434] scale_conv4_1 <- conv4_1
I0525 10:19:51.636157 32256 net.cpp:395] scale_conv4_1 -> conv4_1 (in-place)
I0525 10:19:51.636201 32256 layer_factory.hpp:77] Creating layer scale_conv4_1
I0525 10:19:51.636302 32256 net.cpp:150] Setting up scale_conv4_1
I0525 10:19:51.636309 32256 net.cpp:157] Top shape: 64 256 12 12 (2359296)
I0525 10:19:51.636314 32256 net.cpp:165] Memory required for data: 1414398208
I0525 10:19:51.636320 32256 layer_factory.hpp:77] Creating layer prelu4_1
I0525 10:19:51.636330 32256 net.cpp:100] Creating Layer prelu4_1
I0525 10:19:51.636334 32256 net.cpp:434] prelu4_1 <- conv4_1
I0525 10:19:51.636338 32256 net.cpp:395] prelu4_1 -> conv4_1 (in-place)
I0525 10:19:51.637102 32256 net.cpp:150] Setting up prelu4_1
I0525 10:19:51.637116 32256 net.cpp:157] Top shape: 64 256 12 12 (2359296)
I0525 10:19:51.637120 32256 net.cpp:165] Memory required for data: 1423835392
I0525 10:19:51.637127 32256 layer_factory.hpp:77] Creating layer conv4_2
I0525 10:19:51.637141 32256 net.cpp:100] Creating Layer conv4_2
I0525 10:19:51.637146 32256 net.cpp:434] conv4_2 <- conv4_1
I0525 10:19:51.637152 32256 net.cpp:408] conv4_2 -> conv4_2
I0525 10:19:51.656946 32256 net.cpp:150] Setting up conv4_2
I0525 10:19:51.657001 32256 net.cpp:157] Top shape: 64 256 12 12 (2359296)
I0525 10:19:51.657006 32256 net.cpp:165] Memory required for data: 1433272576
I0525 10:19:51.657037 32256 layer_factory.hpp:77] Creating layer bn_conv4_2
I0525 10:19:51.657049 32256 net.cpp:100] Creating Layer bn_conv4_2
I0525 10:19:51.657055 32256 net.cpp:434] bn_conv4_2 <- conv4_2
I0525 10:19:51.657068 32256 net.cpp:395] bn_conv4_2 -> conv4_2 (in-place)
I0525 10:19:51.657249 32256 net.cpp:150] Setting up bn_conv4_2
I0525 10:19:51.657258 32256 net.cpp:157] Top shape: 64 256 12 12 (2359296)
I0525 10:19:51.657263 32256 net.cpp:165] Memory required for data: 1442709760
I0525 10:19:51.657269 32256 layer_factory.hpp:77] Creating layer scale_conv4_2
I0525 10:19:51.657279 32256 net.cpp:100] Creating Layer scale_conv4_2
I0525 10:19:51.657284 32256 net.cpp:434] scale_conv4_2 <- conv4_2
I0525 10:19:51.657289 32256 net.cpp:395] scale_conv4_2 -> conv4_2 (in-place)
I0525 10:19:51.657364 32256 layer_factory.hpp:77] Creating layer scale_conv4_2
I0525 10:19:51.657464 32256 net.cpp:150] Setting up scale_conv4_2
I0525 10:19:51.657471 32256 net.cpp:157] Top shape: 64 256 12 12 (2359296)
I0525 10:19:51.657475 32256 net.cpp:165] Memory required for data: 1452146944
I0525 10:19:51.657482 32256 layer_factory.hpp:77] Creating layer prelu4_2
I0525 10:19:51.657491 32256 net.cpp:100] Creating Layer prelu4_2
I0525 10:19:51.657495 32256 net.cpp:434] prelu4_2 <- conv4_2
I0525 10:19:51.657500 32256 net.cpp:395] prelu4_2 -> conv4_2 (in-place)
I0525 10:19:51.657618 32256 net.cpp:150] Setting up prelu4_2
I0525 10:19:51.657626 32256 net.cpp:157] Top shape: 64 256 12 12 (2359296)
I0525 10:19:51.657630 32256 net.cpp:165] Memory required for data: 1461584128
I0525 10:19:51.657636 32256 layer_factory.hpp:77] Creating layer pool4
I0525 10:19:51.657645 32256 net.cpp:100] Creating Layer pool4
I0525 10:19:51.657649 32256 net.cpp:434] pool4 <- conv4_2
I0525 10:19:51.657655 32256 net.cpp:408] pool4 -> pool4
I0525 10:19:51.657694 32256 net.cpp:150] Setting up pool4
I0525 10:19:51.657704 32256 net.cpp:157] Top shape: 64 256 6 6 (589824)
I0525 10:19:51.657708 32256 net.cpp:165] Memory required for data: 1463943424
I0525 10:19:51.657711 32256 layer_factory.hpp:77] Creating layer conv5_1
I0525 10:19:51.657723 32256 net.cpp:100] Creating Layer conv5_1
I0525 10:19:51.657728 32256 net.cpp:434] conv5_1 <- pool4
I0525 10:19:51.657734 32256 net.cpp:408] conv5_1 -> conv5_1
I0525 10:19:51.686826 32256 net.cpp:150] Setting up conv5_1
I0525 10:19:51.686878 32256 net.cpp:157] Top shape: 64 384 6 6 (884736)
I0525 10:19:51.686883 32256 net.cpp:165] Memory required for data: 1467482368
I0525 10:19:51.686902 32256 layer_factory.hpp:77] Creating layer bn_conv5_1
I0525 10:19:51.686918 32256 net.cpp:100] Creating Layer bn_conv5_1
I0525 10:19:51.686923 32256 net.cpp:434] bn_conv5_1 <- conv5_1
I0525 10:19:51.686934 32256 net.cpp:395] bn_conv5_1 -> conv5_1 (in-place)
I0525 10:19:51.687124 32256 net.cpp:150] Setting up bn_conv5_1
I0525 10:19:51.687132 32256 net.cpp:157] Top shape: 64 384 6 6 (884736)
I0525 10:19:51.687136 32256 net.cpp:165] Memory required for data: 1471021312
I0525 10:19:51.687146 32256 layer_factory.hpp:77] Creating layer scale_conv5_1
I0525 10:19:51.687156 32256 net.cpp:100] Creating Layer scale_conv5_1
I0525 10:19:51.687160 32256 net.cpp:434] scale_conv5_1 <- conv5_1
I0525 10:19:51.687165 32256 net.cpp:395] scale_conv5_1 -> conv5_1 (in-place)
I0525 10:19:51.687204 32256 layer_factory.hpp:77] Creating layer scale_conv5_1
I0525 10:19:51.687316 32256 net.cpp:150] Setting up scale_conv5_1
I0525 10:19:51.687325 32256 net.cpp:157] Top shape: 64 384 6 6 (884736)
I0525 10:19:51.687328 32256 net.cpp:165] Memory required for data: 1474560256
I0525 10:19:51.687335 32256 layer_factory.hpp:77] Creating layer prelu5_1
I0525 10:19:51.687345 32256 net.cpp:100] Creating Layer prelu5_1
I0525 10:19:51.687350 32256 net.cpp:434] prelu5_1 <- conv5_1
I0525 10:19:51.687356 32256 net.cpp:395] prelu5_1 -> conv5_1 (in-place)
I0525 10:19:51.687448 32256 net.cpp:150] Setting up prelu5_1
I0525 10:19:51.687455 32256 net.cpp:157] Top shape: 64 384 6 6 (884736)
I0525 10:19:51.687459 32256 net.cpp:165] Memory required for data: 1478099200
I0525 10:19:51.687465 32256 layer_factory.hpp:77] Creating layer conv5_2
I0525 10:19:51.687479 32256 net.cpp:100] Creating Layer conv5_2
I0525 10:19:51.687484 32256 net.cpp:434] conv5_2 <- conv5_1
I0525 10:19:51.687489 32256 net.cpp:408] conv5_2 -> conv5_2
I0525 10:19:51.726367 32256 net.cpp:150] Setting up conv5_2
I0525 10:19:51.726408 32256 net.cpp:157] Top shape: 64 384 6 6 (884736)
I0525 10:19:51.726413 32256 net.cpp:165] Memory required for data: 1481638144
I0525 10:19:51.726426 32256 layer_factory.hpp:77] Creating layer bn_conv5_2
I0525 10:19:51.726452 32256 net.cpp:100] Creating Layer bn_conv5_2
I0525 10:19:51.726466 32256 net.cpp:434] bn_conv5_2 <- conv5_2
I0525 10:19:51.726478 32256 net.cpp:395] bn_conv5_2 -> conv5_2 (in-place)
I0525 10:19:51.726681 32256 net.cpp:150] Setting up bn_conv5_2
I0525 10:19:51.726691 32256 net.cpp:157] Top shape: 64 384 6 6 (884736)
I0525 10:19:51.726718 32256 net.cpp:165] Memory required for data: 1485177088
I0525 10:19:51.726727 32256 layer_factory.hpp:77] Creating layer scale_conv5_2
I0525 10:19:51.726738 32256 net.cpp:100] Creating Layer scale_conv5_2
I0525 10:19:51.726743 32256 net.cpp:434] scale_conv5_2 <- conv5_2
I0525 10:19:51.726750 32256 net.cpp:395] scale_conv5_2 -> conv5_2 (in-place)
I0525 10:19:51.726794 32256 layer_factory.hpp:77] Creating layer scale_conv5_2
I0525 10:19:51.726903 32256 net.cpp:150] Setting up scale_conv5_2
I0525 10:19:51.726913 32256 net.cpp:157] Top shape: 64 384 6 6 (884736)
I0525 10:19:51.726917 32256 net.cpp:165] Memory required for data: 1488716032
I0525 10:19:51.726924 32256 layer_factory.hpp:77] Creating layer prelu5_2
I0525 10:19:51.726935 32256 net.cpp:100] Creating Layer prelu5_2
I0525 10:19:51.726940 32256 net.cpp:434] prelu5_2 <- conv5_2
I0525 10:19:51.726948 32256 net.cpp:395] prelu5_2 -> conv5_2 (in-place)
I0525 10:19:51.727051 32256 net.cpp:150] Setting up prelu5_2
I0525 10:19:51.727061 32256 net.cpp:157] Top shape: 64 384 6 6 (884736)
I0525 10:19:51.727064 32256 net.cpp:165] Memory required for data: 1492254976
I0525 10:19:51.727071 32256 layer_factory.hpp:77] Creating layer pool5
I0525 10:19:51.727079 32256 net.cpp:100] Creating Layer pool5
I0525 10:19:51.727084 32256 net.cpp:434] pool5 <- conv5_2
I0525 10:19:51.727089 32256 net.cpp:408] pool5 -> pool5
I0525 10:19:51.727133 32256 net.cpp:150] Setting up pool5
I0525 10:19:51.727141 32256 net.cpp:157] Top shape: 64 384 3 3 (221184)
I0525 10:19:51.727145 32256 net.cpp:165] Memory required for data: 1493139712
I0525 10:19:51.727149 32256 layer_factory.hpp:77] Creating layer ip1
I0525 10:19:51.727161 32256 net.cpp:100] Creating Layer ip1
I0525 10:19:51.727165 32256 net.cpp:434] ip1 <- pool5
I0525 10:19:51.727171 32256 net.cpp:408] ip1 -> ip1
I0525 10:19:51.824658 32256 net.cpp:150] Setting up ip1
I0525 10:19:51.824674 32256 net.cpp:157] Top shape: 64 1024 (65536)
I0525 10:19:51.824677 32256 net.cpp:165] Memory required for data: 1493401856
I0525 10:19:51.824684 32256 layer_factory.hpp:77] Creating layer bn_ip1
I0525 10:19:51.824690 32256 net.cpp:100] Creating Layer bn_ip1
I0525 10:19:51.824694 32256 net.cpp:434] bn_ip1 <- ip1
I0525 10:19:51.824698 32256 net.cpp:395] bn_ip1 -> ip1 (in-place)
I0525 10:19:51.824889 32256 net.cpp:150] Setting up bn_ip1
I0525 10:19:51.824898 32256 net.cpp:157] Top shape: 64 1024 (65536)
I0525 10:19:51.824904 32256 net.cpp:165] Memory required for data: 1493664000
I0525 10:19:51.824915 32256 layer_factory.hpp:77] Creating layer scale_ip1
I0525 10:19:51.824924 32256 net.cpp:100] Creating Layer scale_ip1
I0525 10:19:51.824929 32256 net.cpp:434] scale_ip1 <- ip1
I0525 10:19:51.824934 32256 net.cpp:395] scale_ip1 -> ip1 (in-place)
I0525 10:19:51.824975 32256 layer_factory.hpp:77] Creating layer scale_ip1
I0525 10:19:51.825079 32256 net.cpp:150] Setting up scale_ip1
I0525 10:19:51.825088 32256 net.cpp:157] Top shape: 64 1024 (65536)
I0525 10:19:51.825091 32256 net.cpp:165] Memory required for data: 1493926144
I0525 10:19:51.825098 32256 layer_factory.hpp:77] Creating layer prelu_ip1
I0525 10:19:51.825106 32256 net.cpp:100] Creating Layer prelu_ip1
I0525 10:19:51.825111 32256 net.cpp:434] prelu_ip1 <- ip1
I0525 10:19:51.825115 32256 net.cpp:395] prelu_ip1 -> ip1 (in-place)
I0525 10:19:51.825191 32256 net.cpp:150] Setting up prelu_ip1
I0525 10:19:51.825198 32256 net.cpp:157] Top shape: 64 1024 (65536)
I0525 10:19:51.825202 32256 net.cpp:165] Memory required for data: 1494188288
I0525 10:19:51.825207 32256 layer_factory.hpp:77] Creating layer drop_ip1
I0525 10:19:51.825217 32256 net.cpp:100] Creating Layer drop_ip1
I0525 10:19:51.825222 32256 net.cpp:434] drop_ip1 <- ip1
I0525 10:19:51.825227 32256 net.cpp:395] drop_ip1 -> ip1 (in-place)
I0525 10:19:51.825268 32256 net.cpp:150] Setting up drop_ip1
I0525 10:19:51.825274 32256 net.cpp:157] Top shape: 64 1024 (65536)
I0525 10:19:51.825278 32256 net.cpp:165] Memory required for data: 1494450432
I0525 10:19:51.825283 32256 layer_factory.hpp:77] Creating layer ip2
I0525 10:19:51.825306 32256 net.cpp:100] Creating Layer ip2
I0525 10:19:51.825311 32256 net.cpp:434] ip2 <- ip1
I0525 10:19:51.825318 32256 net.cpp:408] ip2 -> ip2
I0525 10:19:51.932919 32256 net.cpp:150] Setting up ip2
I0525 10:19:51.932950 32256 net.cpp:157] Top shape: 64 3755 (240320)
I0525 10:19:51.932953 32256 net.cpp:165] Memory required for data: 1495411712
I0525 10:19:51.932971 32256 layer_factory.hpp:77] Creating layer loss
I0525 10:19:51.933001 32256 net.cpp:100] Creating Layer loss
I0525 10:19:51.933007 32256 net.cpp:434] loss <- ip2
I0525 10:19:51.933012 32256 net.cpp:434] loss <- label
I0525 10:19:51.933022 32256 net.cpp:408] loss -> loss
I0525 10:19:51.933033 32256 layer_factory.hpp:77] Creating layer loss
…
I0525 10:19:51.934801 32256 net.cpp:322] The NetState phase (1) differed from the phase (0) specified by a rule in layer HWDB
I0525 10:19:51.935016 32256 net.cpp:58] Initializing net from parameters: 
name: "HCCR-CNN9Layer"
state {
  phase: TEST
}
layer {
  name: "HWDB"
  type: "Data"
  top: "data"
  top: "label"
  include {
    phase: TEST
  }
  transform_param {
    crop_size: 96
    mean_file: "/your/path/to/HWDB1.0_1.1_mean_104.binaryproto"
  }
  data_param {
    source: "/your/path/to/ICDAR13_test_lmdb_104"
    batch_size: 13
    backend: LMDB
  }
}
layer {
  name: "conv1"
  type: "Convolution"
  bottom: "data"
  top: "conv1"
  param {
    lr_mult: 1
    decay_mult: 1
  }
  param {
    lr_mult: 2
    decay_mult: 0
  }
  convolution_param {
    num_output: 96
    pad: 1
    kernel_size: 3
    weight_filler {
      type: "msra"
    }
    bias_filler {
      type: "constant"
      value: 0.1
    }
  }
}
layer {
  name: "bn_conv1"
  type: "BatchNorm"
  bottom: "conv1"
  top: "conv1"
}
layer {
  name: "scale_conv1"
  type: "Scale"
  bottom: "conv1"
  top: "conv1"
  param {
    lr_mult: 1
    decay_mult: 1
  }
  param {
    lr_mult: 1
    decay_mult: 0
  }
  scale_param {
    bias_term: true
  }
}
layer {
  name: "prelu1"
  type: "PReLU"
  bottom: "conv1"
  top: "conv1"
}
layer {
  name: "pool1"
  type: "Pooling"
  bottom: "conv1"
  top: "pool1"
  pooling_param {
    pool: MAX
    kernel_size: 3
    stride: 2
  }
}
layer {
  name: "conv2"
  type: "Convolution"
  bottom: "pool1"
  top: "conv2"
  param {
    lr_mult: 1
    decay_mult: 1
  }
  param {
    lr_mult: 2
    decay_mult: 0
  }
  convolution_param {
    num_output: 128
    pad: 1
    kernel_size: 3
    weight_filler {
      type: "msra"
    }
    bias_filler {
      type: "constant"
      value: 0.1
    }
  }
}
layer {
  name: "bn_conv2"
  type: "BatchNorm"
  bottom: "conv2"
  top: "conv2"
}
layer {
  name: "scale_conv2"
  type: "Scale"
  bottom: "conv2"
  top: "conv2"
  param {
    lr_mult: 1
    decay_mult: 1
  }
  param {
    lr_mult: 1
    decay_mult: 0
  }
  scale_param {
    bias_term: true
  }
}
layer {
  name: "prelu2"
  type: "PReLU"
  bottom: "conv2"
  top: "conv2"
}
layer {
  name: "pool2"
  type: "Pooling"
  bottom: "conv2"
  top: "pool2"
  pooling_param {
    pool: MAX
    kernel_size: 3
    stride: 2
  }
}
layer {
  name: "conv3"
  type: "Convolution"
  bottom: "pool2"
  top: "conv3"
  param {
    lr_mult: 1
    decay_mult: 1
  }
  param {
    lr_mult: 2
    decay_mult: 0
  }
  convolution_param {
    num_output: 160
    pad: 1
    kernel_size: 3
    weight_filler {
      type: "msra"
    }
    bias_filler {
      type: "constant"
      value: 0.1
    }
  }
}
layer {
  name: "bn_conv3"
  type: "BatchNorm"
  bottom: "conv3"
  top: "conv3"
}
layer {
  name: "scale_conv3"
  type: "Scale"
  bottom: "conv3"
  top: "conv3"
  param {
    lr_mult: 1
    decay_mult: 1
  }
  param {
    lr_mult: 1
    decay_mult: 0
  }
  scale_param {
    bias_term: true
  }
}
layer {
  name: "prelu3"
  type: "PReLU"
  bottom: "conv3"
  top: "conv3"
}
layer {
  name: "pool3"
  type: "Pooling"
  bottom: "conv3"
  top: "pool3"
  pooling_param {
    pool: MAX
    kernel_size: 3
    stride: 2
  }
}
layer {
  name: "conv4_1"
  type: "Convolution"
  bottom: "pool3"
  top: "conv4_1"
  param {
    lr_mult: 1
    decay_mult: 1
  }
  param {
    lr_mult: 2
    decay_mult: 0
  }
  convolution_param {
    num_output: 256
    pad: 1
    kernel_size: 3
    weight_filler {
      type: "msra"
    }
    bias_filler {
      type: "constant"
      value: 0.1
    }
  }
}
layer {
  name: "bn_conv4_1"
  type: "BatchNorm"
  bottom: "conv4_1"
  top: "conv4_1"
}
layer {
  name: "scale_conv4_1"
  type: "Scale"
  bottom: "conv4_1"
  top: "conv4_1"
  param {
    lr_mult: 1
    decay_mult: 1
  }
  param {
    lr_mult: 1
    decay_mult: 0
  }
  scale_param {
    bias_term: true
  }
}
layer {
  name: "prelu4_1"
  type: "PReLU"
  bottom: "conv4_1"
  top: "conv4_1"
}
layer {
  name: "conv4_2"
  type: "Convolution"
  bottom: "conv4_1"
  top: "conv4_2"
  param {
    lr_mult: 1
    decay_mult: 1
  }
  param {
    lr_mult: 2
    decay_mult: 0
  }
  convolution_param {
    num_output: 256
    pad: 1
    kernel_size: 3
    weight_filler {
      type: "msra"
    }
    bias_filler {
      type: "constant"
      value: 0.1
    }
  }
}
layer {
  name: "bn_conv4_2"
  type: "BatchNorm"
  bottom: "conv4_2"
  top: "conv4_2"
}
layer {
  name: "scale_conv4_2"
  type: "Scale"
  bottom: "conv4_2"
  top: "conv4_2"
  param {
    lr_mult: 1
    decay_mult: 1
  }
  param {
    lr_mult: 1
    decay_mult: 0
  }
  scale_param {
    bias_term: true
  }
}
layer {
  name: "prelu4_2"
  type: "PReLU"
  bottom: "conv4_2"
  top: "conv4_2"
}
layer {
  name: "pool4"
  type: "Pooling"
  bottom: "conv4_2"
  top: "pool4"
  pooling_param {
    pool: MAX
    kernel_size: 3
    stride: 2
  }
}
layer {
  name: "conv5_1"
  type: "Convolution"
  bottom: "pool4"
  top: "conv5_1"
  param {
    lr_mult: 1
    decay_mult: 1
  }
  param {
    lr_mult: 2
    decay_mult: 0
  }
  convolution_param {
    num_output: 384
    pad: 1
    kernel_size: 3
    weight_filler {
      type: "msra"
    }
    bias_filler {
      type: "constant"
      value: 0.1
    }
  }
}
layer {
  name: "bn_conv5_1"
  type: "BatchNorm"
  bottom: "conv5_1"
  top: "conv5_1"
}
layer {
  name: "scale_conv5_1"
  type: "Scale"
  bottom: "conv5_1"
  top: "conv5_1"
  param {
    lr_mult: 1
    decay_mult: 1
  }
  param {
    lr_mult: 1
    decay_mult: 0
  }
  scale_param {
    bias_term: true
  }
}
layer {
  name: "prelu5_1"
  type: "PReLU"
  bottom: "conv5_1"
  top: "conv5_1"
}
layer {
  name: "conv5_2"
  type: "Convolution"
  bottom: "conv5_1"
  top: "conv5_2"
  param {
    lr_mult: 1
    decay_mult: 1
  }
  param {
    lr_mult: 2
    decay_mult: 0
  }
  convolution_param {
    num_output: 384
    pad: 1
    kernel_size: 3
    weight_filler {
      type: "msra"
    }
    bias_filler {
      type: "constant"
      value: 0.1
    }
  }
}
layer {
  name: "bn_conv5_2"
  type: "BatchNorm"
  bottom: "conv5_2"
  top: "conv5_2"
}
layer {
  name: "scale_conv5_2"
  type: "Scale"
  bottom: "conv5_2"
  top: "conv5_2"
  param {
    lr_mult: 1
    decay_mult: 1
  }
  param {
    lr_mult: 1
    decay_mult: 0
  }
  scale_param {
    bias_term: true
  }
}
layer {
  name: "prelu5_2"
  type: "PReLU"
  bottom: "conv5_2"
  top: "conv5_2"
}
layer {
  name: "pool5"
  type: "Pooling"
  bottom: "conv5_2"
  top: "pool5"
  pooling_param {
    pool: MAX
    kernel_size: 3
    stride: 2
  }
}
layer {
  name: "ip1"
  type: "InnerProduct"
  bottom: "pool5"
  top: "ip1"
  param {
    lr_mult: 1
    decay_mult: 1
  }
  param {
    lr_mult: 2
    decay_mult: 0
  }
  inner_product_param {
    num_output: 1024
    weight_filler {
      type: "gaussian"
      std: 0.01
    }
    bias_filler {
      type: "constant"
      value: 0.1
    }
  }
}
layer {
  name: "bn_ip1"
  type: "BatchNorm"
  bottom: "ip1"
  top: "ip1"
}
layer {
  name: "scale_ip1"
  type: "Scale"
  bottom: "ip1"
  top: "ip1"
  param {
    lr_mult: 1
    decay_mult: 1
  }
  param {
    lr_mult: 1
    decay_mult: 0
  }
  scale_param {
    bias_term: true
  }
}
layer {
  name: "prelu_ip1"
  type: "PReLU"
  bottom: "ip1"
  top: "ip1"
}
layer {
  name: "drop_ip1"
  type: "Dropout"
  bottom: "ip1"
  top: "ip1"
  dropout_param {
    dropout_ratio: 0.5
  }
}
layer {
  name: "ip2"
  type: "InnerProduct"
  bottom: "ip1"
  top: "ip2"
  param {
    lr_mult: 1
    decay_mult: 1
  }
  param {
    lr_mult: 2
    decay_mult: 0
  }
  inner_product_param {
    num_output: 3755
    weight_filler {
      type: "gaussian"
      std: 0.01
    }
    bias_filler {
      type: "constant"
      value: 0
    }
  }
}
layer {
  name: "loss"
  type: "SoftmaxWithLoss"
  bottom: "ip2"
  bottom: "label"
  top: "loss"
}
layer {
  name: "accuracy"
  type: "Accuracy"
  bottom: "ip2"
  bottom: "label"
  top: "accuracy"
  include {
    phase: TEST
  }
}
I0525 10:19:51.935190 32256 layer_factory.hpp:77] Creating layer HWDB
I0525 10:19:51.935271 32256 net.cpp:100] Creating Layer HWDB
I0525 10:19:51.935290 32256 net.cpp:408] HWDB -> data
I0525 10:19:51.935302 32256 net.cpp:408] HWDB -> label
I0525 10:19:51.935310 32256 data_transformer.cpp:25] Loading mean file from: /data/tbxu/HWDB1.0_1.1_mean_104.binaryproto
I0525 10:19:51.938654 32266 db_lmdb.cpp:35] Opened lmdb /data/tbxu/ICDAR13_test_lmdb_104
I0525 10:19:51.948536 32256 data_layer.cpp:41] output data size: 13,1,96,96
I0525 10:19:51.950707 32256 net.cpp:150] Setting up HWDB
I0525 10:19:51.950744 32256 net.cpp:157] Top shape: 13 1 96 96 (119808)
I0525 10:19:51.950750 32256 net.cpp:157] Top shape: 13 (13)
I0525 10:19:51.950754 32256 net.cpp:165] Memory required for data: 479284
I0525 10:19:51.950760 32256 layer_factory.hpp:77] Creating layer label_HWDB_1_split
I0525 10:19:51.950773 32256 net.cpp:100] Creating Layer label_HWDB_1_split
I0525 10:19:51.950778 32256 net.cpp:434] label_HWDB_1_split <- label
I0525 10:19:51.950789 32256 net.cpp:408] label_HWDB_1_split -> label_HWDB_1_split_0
I0525 10:19:51.950801 32256 net.cpp:408] label_HWDB_1_split -> label_HWDB_1_split_1
I0525 10:19:51.950872 32256 net.cpp:150] Setting up label_HWDB_1_split
I0525 10:19:51.950882 32256 net.cpp:157] Top shape: 13 (13)
I0525 10:19:51.950888 32256 net.cpp:157] Top shape: 13 (13)
I0525 10:19:51.950891 32256 net.cpp:165] Memory required for data: 479388
I0525 10:19:51.950896 32256 layer_factory.hpp:77] Creating layer conv1
I0525 10:19:51.950909 32256 net.cpp:100] Creating Layer conv1
I0525 10:19:51.950914 32256 net.cpp:434] conv1 <- data
I0525 10:19:51.950922 32256 net.cpp:408] conv1 -> conv1
I0525 10:19:51.952214 32256 net.cpp:150] Setting up conv1
I0525 10:19:51.952234 32256 net.cpp:157] Top shape: 13 96 96 96 (11501568)
I0525 10:19:51.952237 32256 net.cpp:165] Memory required for data: 46485660
I0525 10:19:51.952250 32256 layer_factory.hpp:77] Creating layer bn_conv1
I0525 10:19:51.952258 32256 net.cpp:100] Creating Layer bn_conv1
I0525 10:19:51.952262 32256 net.cpp:434] bn_conv1 <- conv1
I0525 10:19:51.952267 32256 net.cpp:395] bn_conv1 -> conv1 (in-place)
I0525 10:19:51.952497 32256 net.cpp:150] Setting up bn_conv1
I0525 10:19:51.952507 32256 net.cpp:157] Top shape: 13 96 96 96 (11501568)
I0525 10:19:51.952512 32256 net.cpp:165] Memory required for data: 92491932
I0525 10:19:51.952522 32256 layer_factory.hpp:77] Creating layer scale_conv1
I0525 10:19:51.952533 32256 net.cpp:100] Creating Layer scale_conv1
I0525 10:19:51.952538 32256 net.cpp:434] scale_conv1 <- conv1
I0525 10:19:51.952545 32256 net.cpp:395] scale_conv1 -> conv1 (in-place)
I0525 10:19:51.952594 32256 layer_factory.hpp:77] Creating layer scale_conv1
I0525 10:19:51.952728 32256 net.cpp:150] Setting up scale_conv1
I0525 10:19:51.952740 32256 net.cpp:157] Top shape: 13 96 96 96 (11501568)
I0525 10:19:51.952745 32256 net.cpp:165] Memory required for data: 138498204
I0525 10:19:51.952751 32256 layer_factory.hpp:77] Creating layer prelu1
I0525 10:19:51.952759 32256 net.cpp:100] Creating Layer prelu1
I0525 10:19:51.952764 32256 net.cpp:434] prelu1 <- conv1
I0525 10:19:51.952780 32256 net.cpp:395] prelu1 -> conv1 (in-place)
I0525 10:19:51.955096 32256 net.cpp:150] Setting up prelu1
I0525 10:19:51.955126 32256 net.cpp:157] Top shape: 13 96 96 96 (11501568)
I0525 10:19:51.955129 32256 net.cpp:165] Memory required for data: 184504476
I0525 10:19:51.955137 32256 layer_factory.hpp:77] Creating layer pool1
I0525 10:19:51.955148 32256 net.cpp:100] Creating Layer pool1
I0525 10:19:51.955154 32256 net.cpp:434] pool1 <- conv1
I0525 10:19:51.955164 32256 net.cpp:408] pool1 -> pool1
I0525 10:19:51.955215 32256 net.cpp:150] Setting up pool1
I0525 10:19:51.955248 32256 net.cpp:157] Top shape: 13 96 48 48 (2875392)
I0525 10:19:51.955253 32256 net.cpp:165] Memory required for data: 196006044
I0525 10:19:51.955256 32256 layer_factory.hpp:77] Creating layer conv2
I0525 10:19:51.955269 32256 net.cpp:100] Creating Layer conv2
I0525 10:19:51.955274 32256 net.cpp:434] conv2 <- pool1
I0525 10:19:51.955279 32256 net.cpp:408] conv2 -> conv2
I0525 10:19:51.959944 32256 net.cpp:150] Setting up conv2
I0525 10:19:51.959981 32256 net.cpp:157] Top shape: 13 128 48 48 (3833856)
I0525 10:19:51.959985 32256 net.cpp:165] Memory required for data: 211341468
I0525 10:19:51.960000 32256 layer_factory.hpp:77] Creating layer bn_conv2
I0525 10:19:51.960014 32256 net.cpp:100] Creating Layer bn_conv2
I0525 10:19:51.960021 32256 net.cpp:434] bn_conv2 <- conv2
I0525 10:19:51.960031 32256 net.cpp:395] bn_conv2 -> conv2 (in-place)
I0525 10:19:51.960224 32256 net.cpp:150] Setting up bn_conv2
I0525 10:19:51.960233 32256 net.cpp:157] Top shape: 13 128 48 48 (3833856)
I0525 10:19:51.960237 32256 net.cpp:165] Memory required for data: 226676892
I0525 10:19:51.960245 32256 layer_factory.hpp:77] Creating layer scale_conv2
I0525 10:19:51.960254 32256 net.cpp:100] Creating Layer scale_conv2
I0525 10:19:51.960258 32256 net.cpp:434] scale_conv2 <- conv2
I0525 10:19:51.960265 32256 net.cpp:395] scale_conv2 -> conv2 (in-place)
I0525 10:19:51.960311 32256 layer_factory.hpp:77] Creating layer scale_conv2
I0525 10:19:51.960412 32256 net.cpp:150] Setting up scale_conv2
I0525 10:19:51.960422 32256 net.cpp:157] Top shape: 13 128 48 48 (3833856)
I0525 10:19:51.960425 32256 net.cpp:165] Memory required for data: 242012316
I0525 10:19:51.960431 32256 layer_factory.hpp:77] Creating layer prelu2
I0525 10:19:51.960439 32256 net.cpp:100] Creating Layer prelu2
I0525 10:19:51.960443 32256 net.cpp:434] prelu2 <- conv2
I0525 10:19:51.960448 32256 net.cpp:395] prelu2 -> conv2 (in-place)
I0525 10:19:51.961350 32256 net.cpp:150] Setting up prelu2
I0525 10:19:51.961364 32256 net.cpp:157] Top shape: 13 128 48 48 (3833856)
I0525 10:19:51.961367 32256 net.cpp:165] Memory required for data: 257347740
I0525 10:19:51.961374 32256 layer_factory.hpp:77] Creating layer pool2
I0525 10:19:51.961383 32256 net.cpp:100] Creating Layer pool2
I0525 10:19:51.961388 32256 net.cpp:434] pool2 <- conv2
I0525 10:19:51.961395 32256 net.cpp:408] pool2 -> pool2
I0525 10:19:51.961437 32256 net.cpp:150] Setting up pool2
I0525 10:19:51.961444 32256 net.cpp:157] Top shape: 13 128 24 24 (958464)
I0525 10:19:51.961448 32256 net.cpp:165] Memory required for data: 261181596
I0525 10:19:51.961452 32256 layer_factory.hpp:77] Creating layer conv3
I0525 10:19:51.961464 32256 net.cpp:100] Creating Layer conv3
I0525 10:19:51.961469 32256 net.cpp:434] conv3 <- pool2
I0525 10:19:51.961477 32256 net.cpp:408] conv3 -> conv3
I0525 10:19:51.968780 32256 net.cpp:150] Setting up conv3
I0525 10:19:51.968823 32256 net.cpp:157] Top shape: 13 160 24 24 (1198080)
I0525 10:19:51.968839 32256 net.cpp:165] Memory required for data: 265973916
I0525 10:19:51.968855 32256 layer_factory.hpp:77] Creating layer bn_conv3
I0525 10:19:51.968869 32256 net.cpp:100] Creating Layer bn_conv3
I0525 10:19:51.968875 32256 net.cpp:434] bn_conv3 <- conv3
I0525 10:19:51.968884 32256 net.cpp:395] bn_conv3 -> conv3 (in-place)
I0525 10:19:51.969095 32256 net.cpp:150] Setting up bn_conv3
I0525 10:19:51.969105 32256 net.cpp:157] Top shape: 13 160 24 24 (1198080)
I0525 10:19:51.969108 32256 net.cpp:165] Memory required for data: 270766236
I0525 10:19:51.969116 32256 layer_factory.hpp:77] Creating layer scale_conv3
I0525 10:19:51.969125 32256 net.cpp:100] Creating Layer scale_conv3
I0525 10:19:51.969130 32256 net.cpp:434] scale_conv3 <- conv3
I0525 10:19:51.969135 32256 net.cpp:395] scale_conv3 -> conv3 (in-place)
I0525 10:19:51.969182 32256 layer_factory.hpp:77] Creating layer scale_conv3
I0525 10:19:51.969300 32256 net.cpp:150] Setting up scale_conv3
I0525 10:19:51.969310 32256 net.cpp:157] Top shape: 13 160 24 24 (1198080)
I0525 10:19:51.969314 32256 net.cpp:165] Memory required for data: 275558556
I0525 10:19:51.969347 32256 layer_factory.hpp:77] Creating layer prelu3
I0525 10:19:51.969354 32256 net.cpp:100] Creating Layer prelu3
I0525 10:19:51.969359 32256 net.cpp:434] prelu3 <- conv3
I0525 10:19:51.969363 32256 net.cpp:395] prelu3 -> conv3 (in-place)
I0525 10:19:51.970116 32256 net.cpp:150] Setting up prelu3
I0525 10:19:51.970129 32256 net.cpp:157] Top shape: 13 160 24 24 (1198080)
I0525 10:19:51.970134 32256 net.cpp:165] Memory required for data: 280350876
I0525 10:19:51.970140 32256 layer_factory.hpp:77] Creating layer pool3
I0525 10:19:51.970155 32256 net.cpp:100] Creating Layer pool3
I0525 10:19:51.970160 32256 net.cpp:434] pool3 <- conv3
I0525 10:19:51.970166 32256 net.cpp:408] pool3 -> pool3
I0525 10:19:51.970212 32256 net.cpp:150] Setting up pool3
I0525 10:19:51.970219 32256 net.cpp:157] Top shape: 13 160 12 12 (299520)
I0525 10:19:51.970223 32256 net.cpp:165] Memory required for data: 281548956
I0525 10:19:51.970227 32256 layer_factory.hpp:77] Creating layer conv4_1
I0525 10:19:51.970238 32256 net.cpp:100] Creating Layer conv4_1
I0525 10:19:51.970243 32256 net.cpp:434] conv4_1 <- pool3
I0525 10:19:51.970250 32256 net.cpp:408] conv4_1 -> conv4_1
I0525 10:19:51.983156 32256 net.cpp:150] Setting up conv4_1
I0525 10:19:51.983201 32256 net.cpp:157] Top shape: 13 256 12 12 (479232)
I0525 10:19:51.983206 32256 net.cpp:165] Memory required for data: 283465884
I0525 10:19:51.983216 32256 layer_factory.hpp:77] Creating layer bn_conv4_1
I0525 10:19:51.983229 32256 net.cpp:100] Creating Layer bn_conv4_1
I0525 10:19:51.983235 32256 net.cpp:434] bn_conv4_1 <- conv4_1
I0525 10:19:51.983247 32256 net.cpp:395] bn_conv4_1 -> conv4_1 (in-place)
I0525 10:19:51.983453 32256 net.cpp:150] Setting up bn_conv4_1
I0525 10:19:51.983461 32256 net.cpp:157] Top shape: 13 256 12 12 (479232)
I0525 10:19:51.983466 32256 net.cpp:165] Memory required for data: 285382812
I0525 10:19:51.983474 32256 layer_factory.hpp:77] Creating layer scale_conv4_1
I0525 10:19:51.983485 32256 net.cpp:100] Creating Layer scale_conv4_1
I0525 10:19:51.983490 32256 net.cpp:434] scale_conv4_1 <- conv4_1
I0525 10:19:51.983495 32256 net.cpp:395] scale_conv4_1 -> conv4_1 (in-place)
I0525 10:19:51.983541 32256 layer_factory.hpp:77] Creating layer scale_conv4_1
I0525 10:19:51.983650 32256 net.cpp:150] Setting up scale_conv4_1
I0525 10:19:51.983657 32256 net.cpp:157] Top shape: 13 256 12 12 (479232)
I0525 10:19:51.983661 32256 net.cpp:165] Memory required for data: 287299740
I0525 10:19:51.983667 32256 layer_factory.hpp:77] Creating layer prelu4_1
I0525 10:19:51.983677 32256 net.cpp:100] Creating Layer prelu4_1
I0525 10:19:51.983681 32256 net.cpp:434] prelu4_1 <- conv4_1
I0525 10:19:51.983685 32256 net.cpp:395] prelu4_1 -> conv4_1 (in-place)
I0525 10:19:51.983806 32256 net.cpp:150] Setting up prelu4_1
I0525 10:19:51.983814 32256 net.cpp:157] Top shape: 13 256 12 12 (479232)
I0525 10:19:51.983819 32256 net.cpp:165] Memory required for data: 289216668
I0525 10:19:51.983824 32256 layer_factory.hpp:77] Creating layer conv4_2
I0525 10:19:51.983837 32256 net.cpp:100] Creating Layer conv4_2
I0525 10:19:51.983841 32256 net.cpp:434] conv4_2 <- conv4_1
I0525 10:19:51.983847 32256 net.cpp:408] conv4_2 -> conv4_2
I0525 10:19:52.006978 32256 net.cpp:150] Setting up conv4_2
I0525 10:19:52.007025 32256 net.cpp:157] Top shape: 13 256 12 12 (479232)
I0525 10:19:52.007030 32256 net.cpp:165] Memory required for data: 291133596
I0525 10:19:52.007060 32256 layer_factory.hpp:77] Creating layer bn_conv4_2
I0525 10:19:52.007076 32256 net.cpp:100] Creating Layer bn_conv4_2
I0525 10:19:52.007091 32256 net.cpp:434] bn_conv4_2 <- conv4_2
I0525 10:19:52.007102 32256 net.cpp:395] bn_conv4_2 -> conv4_2 (in-place)
I0525 10:19:52.007333 32256 net.cpp:150] Setting up bn_conv4_2
I0525 10:19:52.007342 32256 net.cpp:157] Top shape: 13 256 12 12 (479232)
I0525 10:19:52.007349 32256 net.cpp:165] Memory required for data: 293050524
I0525 10:19:52.007356 32256 layer_factory.hpp:77] Creating layer scale_conv4_2
I0525 10:19:52.007367 32256 net.cpp:100] Creating Layer scale_conv4_2
I0525 10:19:52.007398 32256 net.cpp:434] scale_conv4_2 <- conv4_2
I0525 10:19:52.007405 32256 net.cpp:395] scale_conv4_2 -> conv4_2 (in-place)
I0525 10:19:52.007457 32256 layer_factory.hpp:77] Creating layer scale_conv4_2
I0525 10:19:52.007570 32256 net.cpp:150] Setting up scale_conv4_2
I0525 10:19:52.007577 32256 net.cpp:157] Top shape: 13 256 12 12 (479232)
I0525 10:19:52.007581 32256 net.cpp:165] Memory required for data: 294967452
I0525 10:19:52.007587 32256 layer_factory.hpp:77] Creating layer prelu4_2
I0525 10:19:52.007596 32256 net.cpp:100] Creating Layer prelu4_2
I0525 10:19:52.007601 32256 net.cpp:434] prelu4_2 <- conv4_2
I0525 10:19:52.007607 32256 net.cpp:395] prelu4_2 -> conv4_2 (in-place)
I0525 10:19:52.007740 32256 net.cpp:150] Setting up prelu4_2
I0525 10:19:52.007748 32256 net.cpp:157] Top shape: 13 256 12 12 (479232)
I0525 10:19:52.007752 32256 net.cpp:165] Memory required for data: 296884380
I0525 10:19:52.007757 32256 layer_factory.hpp:77] Creating layer pool4
I0525 10:19:52.007767 32256 net.cpp:100] Creating Layer pool4
I0525 10:19:52.007772 32256 net.cpp:434] pool4 <- conv4_2
I0525 10:19:52.007779 32256 net.cpp:408] pool4 -> pool4
I0525 10:19:52.007820 32256 net.cpp:150] Setting up pool4
I0525 10:19:52.007828 32256 net.cpp:157] Top shape: 13 256 6 6 (119808)
I0525 10:19:52.007833 32256 net.cpp:165] Memory required for data: 297363612
I0525 10:19:52.007836 32256 layer_factory.hpp:77] Creating layer conv5_1
I0525 10:19:52.007853 32256 net.cpp:100] Creating Layer conv5_1
I0525 10:19:52.007858 32256 net.cpp:434] conv5_1 <- pool4
I0525 10:19:52.007863 32256 net.cpp:408] conv5_1 -> conv5_1
I0525 10:19:52.036736 32256 net.cpp:150] Setting up conv5_1
I0525 10:19:52.036782 32256 net.cpp:157] Top shape: 13 384 6 6 (179712)
I0525 10:19:52.036794 32256 net.cpp:165] Memory required for data: 298082460
I0525 10:19:52.036808 32256 layer_factory.hpp:77] Creating layer bn_conv5_1
I0525 10:19:52.036821 32256 net.cpp:100] Creating Layer bn_conv5_1
I0525 10:19:52.036828 32256 net.cpp:434] bn_conv5_1 <- conv5_1
I0525 10:19:52.036839 32256 net.cpp:395] bn_conv5_1 -> conv5_1 (in-place)
I0525 10:19:52.037058 32256 net.cpp:150] Setting up bn_conv5_1
I0525 10:19:52.037067 32256 net.cpp:157] Top shape: 13 384 6 6 (179712)
I0525 10:19:52.037071 32256 net.cpp:165] Memory required for data: 298801308
I0525 10:19:52.037084 32256 layer_factory.hpp:77] Creating layer scale_conv5_1
I0525 10:19:52.037094 32256 net.cpp:100] Creating Layer scale_conv5_1
I0525 10:19:52.037098 32256 net.cpp:434] scale_conv5_1 <- conv5_1
I0525 10:19:52.037103 32256 net.cpp:395] scale_conv5_1 -> conv5_1 (in-place)
I0525 10:19:52.037150 32256 layer_factory.hpp:77] Creating layer scale_conv5_1
I0525 10:19:52.037268 32256 net.cpp:150] Setting up scale_conv5_1
I0525 10:19:52.037276 32256 net.cpp:157] Top shape: 13 384 6 6 (179712)
I0525 10:19:52.037281 32256 net.cpp:165] Memory required for data: 299520156
I0525 10:19:52.037286 32256 layer_factory.hpp:77] Creating layer prelu5_1
I0525 10:19:52.037297 32256 net.cpp:100] Creating Layer prelu5_1
I0525 10:19:52.037300 32256 net.cpp:434] prelu5_1 <- conv5_1
I0525 10:19:52.037305 32256 net.cpp:395] prelu5_1 -> conv5_1 (in-place)
I0525 10:19:52.037425 32256 net.cpp:150] Setting up prelu5_1
I0525 10:19:52.037433 32256 net.cpp:157] Top shape: 13 384 6 6 (179712)
I0525 10:19:52.037438 32256 net.cpp:165] Memory required for data: 300239004
I0525 10:19:52.037443 32256 layer_factory.hpp:77] Creating layer conv5_2
I0525 10:19:52.037456 32256 net.cpp:100] Creating Layer conv5_2
I0525 10:19:52.037461 32256 net.cpp:434] conv5_2 <- conv5_1
I0525 10:19:52.037467 32256 net.cpp:408] conv5_2 -> conv5_2
I0525 10:19:52.076902 32256 net.cpp:150] Setting up conv5_2
I0525 10:19:52.076921 32256 net.cpp:157] Top shape: 13 384 6 6 (179712)
I0525 10:19:52.076925 32256 net.cpp:165] Memory required for data: 300957852
I0525 10:19:52.076943 32256 layer_factory.hpp:77] Creating layer bn_conv5_2
I0525 10:19:52.076956 32256 net.cpp:100] Creating Layer bn_conv5_2
I0525 10:19:52.076962 32256 net.cpp:434] bn_conv5_2 <- conv5_2
I0525 10:19:52.076970 32256 net.cpp:395] bn_conv5_2 -> conv5_2 (in-place)
I0525 10:19:52.077190 32256 net.cpp:150] Setting up bn_conv5_2
I0525 10:19:52.077199 32256 net.cpp:157] Top shape: 13 384 6 6 (179712)
I0525 10:19:52.077206 32256 net.cpp:165] Memory required for data: 301676700
I0525 10:19:52.077215 32256 layer_factory.hpp:77] Creating layer scale_conv5_2
I0525 10:19:52.077224 32256 net.cpp:100] Creating Layer scale_conv5_2
I0525 10:19:52.077229 32256 net.cpp:434] scale_conv5_2 <- conv5_2
I0525 10:19:52.077235 32256 net.cpp:395] scale_conv5_2 -> conv5_2 (in-place)
I0525 10:19:52.077283 32256 layer_factory.hpp:77] Creating layer scale_conv5_2
I0525 10:19:52.077401 32256 net.cpp:150] Setting up scale_conv5_2
I0525 10:19:52.077411 32256 net.cpp:157] Top shape: 13 384 6 6 (179712)
I0525 10:19:52.077415 32256 net.cpp:165] Memory required for data: 302395548
I0525 10:19:52.077422 32256 layer_factory.hpp:77] Creating layer prelu5_2
I0525 10:19:52.077435 32256 net.cpp:100] Creating Layer prelu5_2
I0525 10:19:52.077440 32256 net.cpp:434] prelu5_2 <- conv5_2
I0525 10:19:52.077445 32256 net.cpp:395] prelu5_2 -> conv5_2 (in-place)
I0525 10:19:52.077549 32256 net.cpp:150] Setting up prelu5_2
I0525 10:19:52.077558 32256 net.cpp:157] Top shape: 13 384 6 6 (179712)
I0525 10:19:52.077563 32256 net.cpp:165] Memory required for data: 303114396
I0525 10:19:52.077567 32256 layer_factory.hpp:77] Creating layer pool5
I0525 10:19:52.077579 32256 net.cpp:100] Creating Layer pool5
I0525 10:19:52.077584 32256 net.cpp:434] pool5 <- conv5_2
I0525 10:19:52.077589 32256 net.cpp:408] pool5 -> pool5
I0525 10:19:52.077631 32256 net.cpp:150] Setting up pool5
I0525 10:19:52.077639 32256 net.cpp:157] Top shape: 13 384 3 3 (44928)
I0525 10:19:52.077643 32256 net.cpp:165] Memory required for data: 303294108
I0525 10:19:52.077647 32256 layer_factory.hpp:77] Creating layer ip1
I0525 10:19:52.077659 32256 net.cpp:100] Creating Layer ip1
I0525 10:19:52.077664 32256 net.cpp:434] ip1 <- pool5
I0525 10:19:52.077671 32256 net.cpp:408] ip1 -> ip1
I0525 10:19:52.173863 32256 net.cpp:150] Setting up ip1
I0525 10:19:52.173880 32256 net.cpp:157] Top shape: 13 1024 (13312)
I0525 10:19:52.173884 32256 net.cpp:165] Memory required for data: 303347356
I0525 10:19:52.173890 32256 layer_factory.hpp:77] Creating layer bn_ip1
I0525 10:19:52.173898 32256 net.cpp:100] Creating Layer bn_ip1
I0525 10:19:52.173902 32256 net.cpp:434] bn_ip1 <- ip1
I0525 10:19:52.173907 32256 net.cpp:395] bn_ip1 -> ip1 (in-place)
I0525 10:19:52.174123 32256 net.cpp:150] Setting up bn_ip1
I0525 10:19:52.174130 32256 net.cpp:157] Top shape: 13 1024 (13312)
I0525 10:19:52.174137 32256 net.cpp:165] Memory required for data: 303400604
I0525 10:19:52.174147 32256 layer_factory.hpp:77] Creating layer scale_ip1
I0525 10:19:52.174155 32256 net.cpp:100] Creating Layer scale_ip1
I0525 10:19:52.174162 32256 net.cpp:434] scale_ip1 <- ip1
I0525 10:19:52.174167 32256 net.cpp:395] scale_ip1 -> ip1 (in-place)
I0525 10:19:52.174209 32256 layer_factory.hpp:77] Creating layer scale_ip1
I0525 10:19:52.174324 32256 net.cpp:150] Setting up scale_ip1
I0525 10:19:52.174331 32256 net.cpp:157] Top shape: 13 1024 (13312)
I0525 10:19:52.174335 32256 net.cpp:165] Memory required for data: 303453852
I0525 10:19:52.174341 32256 layer_factory.hpp:77] Creating layer prelu_ip1
I0525 10:19:52.174353 32256 net.cpp:100] Creating Layer prelu_ip1
I0525 10:19:52.174363 32256 net.cpp:434] prelu_ip1 <- ip1
I0525 10:19:52.174370 32256 net.cpp:395] prelu_ip1 -> ip1 (in-place)
I0525 10:19:52.174456 32256 net.cpp:150] Setting up prelu_ip1
I0525 10:19:52.174464 32256 net.cpp:157] Top shape: 13 1024 (13312)
I0525 10:19:52.174468 32256 net.cpp:165] Memory required for data: 303507100
I0525 10:19:52.174474 32256 layer_factory.hpp:77] Creating layer drop_ip1
I0525 10:19:52.174487 32256 net.cpp:100] Creating Layer drop_ip1
I0525 10:19:52.174492 32256 net.cpp:434] drop_ip1 <- ip1
I0525 10:19:52.174497 32256 net.cpp:395] drop_ip1 -> ip1 (in-place)
I0525 10:19:52.174523 32256 net.cpp:150] Setting up drop_ip1
I0525 10:19:52.174530 32256 net.cpp:157] Top shape: 13 1024 (13312)
I0525 10:19:52.174546 32256 net.cpp:165] Memory required for data: 303560348
I0525 10:19:52.174551 32256 layer_factory.hpp:77] Creating layer ip2
I0525 10:19:52.174561 32256 net.cpp:100] Creating Layer ip2
I0525 10:19:52.174564 32256 net.cpp:434] ip2 <- ip1
I0525 10:19:52.174571 32256 net.cpp:408] ip2 -> ip2
I0525 10:19:52.281262 32256 net.cpp:150] Setting up ip2
I0525 10:19:52.281280 32256 net.cpp:157] Top shape: 13 3755 (48815)
I0525 10:19:52.281293 32256 net.cpp:165] Memory required for data: 303755608
I0525 10:19:52.281311 32256 layer_factory.hpp:77] Creating layer ip2_ip2_0_split
I0525 10:19:52.281333 32256 net.cpp:100] Creating Layer ip2_ip2_0_split
I0525 10:19:52.281338 32256 net.cpp:434] ip2_ip2_0_split <- ip2
I0525 10:19:52.281344 32256 net.cpp:408] ip2_ip2_0_split -> ip2_ip2_0_split_0
I0525 10:19:52.281352 32256 net.cpp:408] ip2_ip2_0_split -> ip2_ip2_0_split_1
I0525 10:19:52.281397 32256 net.cpp:150] Setting up ip2_ip2_0_split
I0525 10:19:52.281404 32256 net.cpp:157] Top shape: 13 3755 (48815)
I0525 10:19:52.281411 32256 net.cpp:157] Top shape: 13 3755 (48815)
I0525 10:19:52.281415 32256 net.cpp:165] Memory required for data: 304146128
I0525 10:19:52.281419 32256 layer_factory.hpp:77] Creating layer loss
I0525 10:19:52.281425 32256 net.cpp:100] Creating Layer loss
I0525 10:19:52.281430 32256 net.cpp:434] loss <- ip2_ip2_0_split_0
I0525 10:19:52.281433 32256 net.cpp:434] loss <- label_HWDB_1_split_0
I0525 10:19:52.281440 32256 net.cpp:408] loss -> loss
…
